weights.tflite (tflite, 56696 bytes, 7 tensors)

model_1/Label_out/BiasAdd/ReadVariableOp/resource f4 [15]
2.6192584 -3.8512034 0.5808687 -1.2636541 1.5678393 -1.8502887 -1.8213482 -9.61191
-22.372824 -8.880537 -3.7119608 -7.004765 -6.7205935 -11.410023 -7.017985
00000000: eea1 2740 1e7a 76c0 d0b3 143f 6bbf a1bf
00000010: f5ae c83f 43d6 ecbf f021 e9bf 62ca 19c1
00000020: 8bfb b2c1 ae16 0ec1 c490 6dc0 0927 e0c0
00000030: 1a0f d7c0 748f 36c1 5593 e0c0

model_1/dense_2/BiasAdd/ReadVariableOp/resource f4 [92]
1.8390923 -0.73739225 -2.0345926 1.4216312 1.584655 0.9928182 0.2712009 2.061097
1.0793464 -2.6131344 -0.66224104 -5.5576954 0.14345947 -2.4448268 2.0001187 1.4005264
-0.33657348 -1.2792114 -0.09442259 3.251129 5.9436913 1.0070765 6.0008097 -0.39610347
2.0010397 1.7915411 -0.50200737 -0.12905653 0.12567501 1.5660831 0.640594 3.5690606
1.1346984 2.193825 0.62034744 -0.91331047 -1.9312863 -1.7384614 -0.533322 -0.9779619
0.32484794 0.05256902 1.6964011 -0.39392298 -0.09554935 0.08288474 -1.1795162 -1.0537115
-0.46523747 0.6088258 0.5829436 1.7969416 2.286749 -6.422877 0.51761436 -0.78599447
0.95281833 -0.3073094 -1.2813923 1.9033264 -0.7797777 1.6176641 -1.2552137 -0.00025170879
-0.55658656 -0.035227116 0.2348625 -2.1961935 0.42295712 -1.5857185 0.12075463 2.7397983
-1.1792151 -1.1545291 1.358921 0.7732468 2.9281077 -2.0540073 -1.5397383 3.7717512
0.07926812 -3.3067718 -0.0663124 2.4207387 0.3960522 -2.4924998 1.0756915 -0.8852902
0.00013226201 1.1919403 -1.8209302 1.1906291
00000000: 6067 eb3f bdc5 3cbf c436 02c0 03f8 b53f
00000010: fad5 ca3f 5529 7e3f d8da 8a3e 03e9 0340
00000020: 0628 8a3f 983d 27c0 a188 29bf a4d8 b1c0
00000030: 0ae7 123e 0b78 1cc0 f201 0040 7344 b33f
00000040: 5c53 acbe 33bd a3bf a260 c1bd 7f12 5040
00000050: b832 be40 e2e7 803f a206 c040 13ce cabe
00000060: 0911 0040 3851 e53f 8e83 00bf 6527 04be
00000070: f3b0 003e 6975 c83f f8fd 233f 7d6b 6440
00000080: cc3d 913f a167 0c40 17cf 1e3f b7ce 69bf
00000090: 6434 f7bf e785 debf ca87 08bf b65b 7abf
000000a0: 7852 a63e 9d52 573d ac23 d93f 46b0 c9be
000000b0: 61af c3bd 79bf a93d 63fa 96bf 05e0 86bf
000000c0: 9b33 eebe 02dc 1b3f cb3b 153f 2f02 e63f
000000d0: 185a 1240 3588 cdc0 6082 043f ef36 49bf
000000e0: e7eb 733f a857 9dbe aa04 a4bf 33a0 f33f
000000f0: 839f 47bf 9e0f cf3f d8aa a0bf c8f7 83b9
00000100: 757c 0ebf 4f4a 10bd cc7f 703e 6f8e 0cc0
00000110: d68d d83e d3f8 cabf 344e f73d db58 2f40
00000120: 85f0 96bf 9cc7 93bf 20f1 ad3f 81f3 453f
00000130: 1e66 3b40 db74 03c0 2516 c5bf 5f64 7140
00000140: 5357 a23d 26a2 53c0 ccce 87bd 62ed 1a40
00000150: 5bc7 ca3e 1e85 1fc0 42b0 893f 61a2 62bf
00000160: d0af 0a39 8091 983f 3e14 e9bf 8966 983f

model_1/dense_3/BiasAdd/ReadVariableOp/resource f4 [67]
0.37848085 -2.667375 1.4046524 -1.9680109 -5.4908123 -1.9571931 -6.251419 -0.8306454
-5.373453 -2.1876953 -5.49215 -3.2494028 -3.2499459 -3.7763987 -1.9854528 -1.5693276
-3.181431 -3.3830543 -1.7249873 -2.21031 -3.1265025 0.32374278 -1.4674128 -4.109957
-0.8930718 -3.528097 -1.061063 -6.6085334 -3.7864757 -2.1843905 -0.46494752 -6.313171
-2.0090976 -3.0963104 2.0140524 -3.4243128 4.232294 -3.6264281 -2.570233 -9.085419
-3.108892 -10.260059 1.3988265 -1.8995808 2.573987 -3.950049 -1.702815 -3.9304342
-4.6687565 -2.8047333 -3.7292554 5.491839 -5.120723 -0.92489463 -4.3307614 -7.8079004
-11.437433 -6.5745044 -3.2148707 -0.24874388 -3.949046 -6.462217 -3.305238 -3.0758348
-1.0763569 -9.145023 -5.240678
00000000: 3ec8 c13e 46b6 2ac0 a6cb b33f c8e7 fbbf
00000010: bcb4 afc0 4e85 fabf a00b c8c0 2da5 54bf
00000020: 54f3 abc0 3303 0cc0 b1bf afc0 37f6 4fc0
00000030: 1dff 4fc0 84b0 71c0 5123 febf badf c8bf
00000040: 919c 4bc0 f683 58c0 62cc dcbf b875 0dc0
00000050: 9e18 48c0 9dc1 a53e 2fd4 bbbf c584 83c0
00000060: 5aa0 64bf 57cc 61c0 ead0 87bf 1b79 d3c0
00000070: 9e55 72c0 0ecd 0bc0 9a0d eebe 7f05 cac0
00000080: 0e95 00c0 f329 46c0 3ce6 0040 f127 5bc0
00000090: f46e 8740 6617 68c0 b37e 24c0 e05d 11c1
000000a0: 16f8 46c0 3429 24c1 bf0c b33f 7725 f3bf
000000b0: 34bc 2440 9acd 7cc0 d8f5 d9bf 3c8c 7bc0
000000c0: 7466 95c0 c080 33c0 1fac 6ec0 25bd af40
000000d0: f6dc a3c0 e5c5 6cbf 9995 8ac0 52da f9c0
000000e0: baff 36c1 5762 d2c0 71c0 4dc0 b7b6 7ebe
000000f0: 2bbd 7cc0 7bca cec0 0589 53c0 7ada 44c0
00000100: 10c6 89bf 0452 12c1 a2b3 a7c0

model_1/Attack_out/MatMul f4 [1, 92]
0.17340969 -0.20062482 -0.08968702 0.05244014 2.1469312 -0.63284063 0.119966686 0.29179314
0.24785511 -0.28788078 -0.03153334 0.69981855 1.29073 -0.0012398064 0.3321269 -0.16759995
0.1700485 -0.027084386 -0.2789592 -0.05985666 -0.0046025077 0.16563955 -1.514679 -0.057857893
0.27783075 -0.033788618 -0.33143264 -0.00096712 -0.04666906 -0.17881489 -0.880008 -0.7963338
0.16992156 -0.6945657 0.024893116 -0.99535644 0.95351523 0.05299902 -0.5563214 0.003043037
0.6717411 0.3542376 0.35890788 0.048891 0.67002887 -0.20846955 -0.18487094 0.027349927
0.009358313 -0.01981484 0.08946455 -0.05429709 -0.4365761 1.2558404 -0.24429776 -0.043400463
-0.03263824 0.115859784 0.18409304 -0.33279815 -0.05153261 0.025849387 -0.008290639 -0.18023668
-0.024647648 -0.30343246 0.002440745 -0.3734959 -0.2295534 0.03733053 1.2579651 0.8742043
0.050972905 -0.004661805 0.7904365 -0.12725559 -0.81572527 -0.34505904 -0.26955435 0.06443351
-0.7541281 0.00449753 -0.022738617 0.4276782 0.40143985 0.8380713 -0.037913207 0.816512
0.027706051 -0.012932223 -0.8478635 -1.5453303
00000000: 4f92 313e 9870 4dbe d4ad b7bd 79cb 563d
00000010: 5267 0940 d801 22bf 18b1 f53d e965 953e
00000020: bbcd 7d3e 1c65 93be 1b29 01bd 4f27 333f
00000030: a436 a53f 0081 a2ba 890c aa3e 529f 2bbe
00000040: 3221 2e3e 13e0 ddbc bed3 8ebe 422c 75bd
00000050: a2d0 96bb 6a9d 293e 00e1 c1bf 66fc 6cbd
00000060: d53f 8e3e ef65 0abd 8ab1 a9be 5386 7dba
00000070: 0e28 3fbd 401b 37be 3448 61bf 88dc 4bbf
00000080: ebff 2d3e 0fcf 31bf a6ec cb3c aecf 7ebf
00000090: 9319 743f 8015 593d 146b 0ebf b06d 473b
000000a0: 3af7 2b3f a15e b53e c6c2 b73e ee41 483d
000000b0: 0387 2b3f 0b79 55be cf4e 3dbe f40c e03c
000000c0: 9c53 193c bb52 a2bc 3139 b73d a066 5ebd
000000d0: e786 dfbe 61bf a03f 3129 7abe afc4 31bd
000000e0: adaf 05bd e547 ed3d e382 3c3e 8564 aabe
000000f0: dc13 53bd 18c2 d33c 76d5 07bc f78f 38be
00000100: dde9 c9bc 805b 9bbe e8f4 1f3b db3a bfbe
00000110: 0c10 6bbe e6e7 183d 0005 a13f dacb 5f3f
00000120: f7c8 503d 0ec2 98bb 0c5a 4a3f 4a4f 02be
00000130: 5fd3 50bf 94ab b0be 0703 8abe b7f5 833d
00000140: 8a0e 41bf 0460 933b 5646 babc a3f8 da3e
00000150: 8689 cd3e d78b 563f e14a 1bbd ee06 513f
00000160: cdf7 e23c ade1 53bc 950d 59bf 62cd c5bf

model_1/Label_out/MatMul f4 [15, 67]
-0.44317487 -2.1652246 -0.29673555 -0.7834991 -0.47968882 -0.70795137 -1.0698311 -0.47062445
0.16443996 -1.4556304 -0.00049491116 -0.3929783 -1.655651 -1.017706 -0.6391557 -0.76093495
-0.5575716 -0.6002375 -0.6756967 -0.74805236 -1.5844808 -1.378124 -1.0766971 -1.4287889
-1.1081567 -1.4964765 -1.0919117 -0.40665165 -0.79541165 -2.4809306 -1.6644179 -0.5573131
-1.5873575 -0.5099151 -1.2731701 -0.6925354 -0.57089543 -0.18016028 -0.3522666 -1.4612428
-0.5597427 -1.6220238 -1.3604642 -1.3102854 -0.52208394 -0.5626165 -0.8578631 -1.608995
-0.9079217 -1.0254136 -0.94784284 -1.4836667 -1.1495813 -1.5312084 -1.4851528 -0.7630721
-0.9479991 0.13029957 -0.5447009 -0.6113278 -1.6651433 -0.98353577 -0.60897374 -0.38749945
-0.14285623 -1.8127589 -0.3434574 -6.7822948 -4.943724 -6.293636 -2.5793018 -8.188258
-5.117932 -2.366285 -7.0119805 -6.540153 -9.740027 0.18909346 -9.911875 -5.3370104
-1.738834 -5.9174843 -5.224995 -2.2212224 -1.3596818 -7.982822 -1.4524449 -4.668237
-9.045572 -3.903974 -8.887425 0.10850167 -1.6117892 -1.2117937 -4.411148 -2.2988555
-5.809023 -11.073526 -1.5914421 -1.7271379 -1.1071063 -7.415193 -7.0301385 -0.5651506
-0.13323803 -4.42199 -1.4942851 -9.707107 -4.9997034 -0.63984096 -1.3005446 -4.668366
-0.81839377 -12.098075 -1.6005696 -1.6550945 -5.495699 -0.7892393 -3.2265453 -1.3692441
-4.130558 -1.8167654 -3.033629 -1.1097199 -7.811919 -0.5280635 -0.19568156 -6.1671042
-3.2211947 -5.250428 -1.0761483 -0.060166728 -8.801128 -7.7773547 -2.8970623 -9.742992
-2.2402833 -1.0216132 -0.5032133 -0.6167506 -6.9581747 0.29656082 0.15350188 -1.0914315
-1.9853258 0.1408248 -2.7864041 -0.052036975 -3.0577433 -0.6827424 -0.17423762 -1.1841841
-0.3394789 -4.382868 -2.7985947 -0.5597134 -0.9713676 -3.2405488 -0.13284817 -7.3343887
-7.715063 -3.825175 -5.74487 -5.5406866 -1.9641683 -2.7148051 -3.6828294 -2.8190777
-3.483748 -2.953671 -0.7263527 -5.882033 0.026132055 -6.554314 0.63803744 -5.7510743
-1.52752 -3.322216 -0.07009721 -2.2877562 -8.360203 -2.022295 -0.10183796 -0.5713756
-3.4638927 -1.565819 -5.6719446 0.066553876 -0.8446188 -10.726315 -4.0041566 -7.341493
-0.8636465 -3.034414 -6.6734776 -1.3050354 -9.581463 -4.211526 -7.135109 -3.1354778
-7.176798 -7.2095485 -6.154252 -8.371795 -2.9832554 -5.616611 -0.17812094 -5.93414
-7.4676003 -4.4819546 -7.6221886 -0.7805603 -1.4731563 -3.991945 -1.6630237 -3.8232582
-10.096845 -1.5869285 -0.20075099 -2.910036 -0.8089893 -1.0506996 -0.47771397 -0.2956989
-5.6466613 -3.3341863 -7.242443 -3.4058251 -4.0024033 -7.507511 -12.990643 -1.5804796
-4.081198 -5.6537213 -6.7920194 -6.5930996 -5.123511 -0.6215538 -8.426958 -2.0316577
-7.089294 -1.2624377 -5.271353 -8.523198 -9.89739 -6.9638343 -1.9734809 -6.3356123
-7.216899 -0.67773485 -8.523571 -3.7273445 -1.5747057 -4.813949 -4.820653 -1.2108036
00000000: d1e7 e2be 0a93 0ac0 b9ed 97be 6693 48bf
00000010: c699 f5be 4d3c 35bf 3af0 88bf b0f5 f0be
00000020: f362 283e 1952 babf edbc 01ba 7434 c9be
00000030: 5fec d3bf 3144 82bf b59f 23bf a2cc 42bf
00000040: 03bd 0ebf 2aa9 19bf 75fa 2cbf 5c80 3fbf
00000050: 44d0 cabf 5e66 b0bf 36d1 89bf 8ee2 b6bf
00000060: 14d8 8dbf 8b8c bfbf c3c3 8bbf a534 d0be
00000070: 19a0 4bbf 91c7 1ec0 a50b d5bf 12ac 0ebf
00000080: 882e cbbf cc89 02bf 3df7 a2bf 004a 31bf
00000090: 3426 12bf f07b 38be 4a5c b4be 010a bbbf
000000a0: 4c4b 0fbf 7a9e cfbf b123 aebf 6fb7 a7bf
000000b0: 4ba7 05bf a307 10bf eb9c 5bbf 8cf3 cdbf
000000c0: 8e6d 68bf c140 83bf d4a5 72bf cae8 bdbf
000000d0: 7b25 93bf a3fe c3bf 7d19 bebf b158 43bf
000000e0: 12b0 72bf 406d 053e 8571 0bbf fb7f 1cbf
000000f0: 6a23 d5bf 00c9 7bbf b4e5 1bbf 5466 c6be
00000100: e748 12be 7c08 e8bf a6d9 afbe 8f08 d9c0
00000110: fd32 9ec0 7765 c9c0 4813 25c0 1b03 03c1
00000120: 19c6 a3c0 3771 17c0 2562 e0c0 ef48 d1c0
00000130: 27d7 1bc1 b7a1 413e 0a97 1ec1 cac8 aac0
00000140: 1d92 debf 085c bdc0 2933 a7c0 8228 0ec0
00000150: 0e0a aebf 4773 ffc0 b7e9 b9bf 3362 95c0
00000160: aaba 10c1 b6da 79c0 e532 0ec1 2036 de3d
00000170: 1c4f cebf 0e1c 9bbf 2028 8dc0 7320 13c0
00000180: 84e3 b9c0 2a2d 31c1 60b4 cbbf db12 ddbf
00000190: a9b5 8dbf 4349 edc0 e5f6 e0c0 b6ad 10bf
000001a0: 8d6f 08be f180 8dc0 bc44 bfbf 4f50 1bc1
000001b0: 92fd 9fc0 9ecc 23bf 3f78 a6bf 4163 95c0
000001c0: 4182 51bf b791 41c1 77df ccbf 23da d3bf
000001d0: c4dc afc0 960b 4abf b87f 4ec0 6443 afbf
000001e0: 882d 84c0 c58b e8bf fa26 42c0 4d0b 8ebf
000001f0: 3efb f9c0 2b2f 07bf bf60 48be eb58 c5c0
00000200: 0e28 4ec0 8203 a8c0 3abf 89bf 6371 76bd
00000210: 6cd1 0cc1 17e0 f8c0 7869 39c0 4ce3 1bc1
00000220: cd60 0fc0 39c4 82bf 96d2 00bf 5ee3 1dbf
00000230: 5ea9 dec0 d2d6 973e 992f 1d3e 07b4 8bbf
00000240: 281f febf 6034 103e 7254 32c0 b924 55bd
00000250: 11b2 43c0 35c8 2ebf 596b 32be 5893 97bf
00000260: 2ed0 adbe 7440 8cc0 2d1c 33c0 6149 0fbf
00000270: 8cab 78bf 2765 4fc0 5a09 08be 50b3 eac0
00000280: cce1 f6c0 abcf 74c0 fad5 b7c0 4e4d b1c0
00000290: de69 fbbf 5ebf 2dc0 7ab3 6bc0 c56b 34c0
000002a0: baf5 5ec0 f208 3dc0 40f2 39bf 9d39 bcc0
000002b0: e412 d63c f1bc d1c0 6c56 233f cd08 b8c0
000002c0: c685 c3bf 309f 54c0 208f 8fbd 996a 12c0
000002d0: 64c3 05c1 486d 01c0 6c90 d0bd ac45 12bf
000002e0: 6bb0 5dc0 c26c c8bf 9280 b5c0 664d 883d
000002f0: f038 58bf fc9e 2bc1 0d22 80c0 83ed eac0
00000300: f017 5dbf d733 42c0 218d d5c0 660b a7bf
00000310: ac4d 19c1 d2c4 86c0 d052 e4c0 abab 48c0
00000320: 54a8 e5c0 9fb4 e6c0 a2ef c4c0 dff2 05c1
00000330: a8ed 3ec0 47bb b3c0 5665 36be 7ae4 bdc0
00000340: 95f6 eec0 2c6c 8fc0 f8e8 f3c0 cdd2 47bf
00000350: 6390 bcbf 077c 7fc0 f6dd d4bf 43b0 74c0
00000360: ad8c 21c1 7920 cbbf ab91 4dbe 083e 3ac0
00000370: ec19 4fbf 537d 86bf ed96 f4be d965 97be
00000380: 73b1 b4c0 4f63 55c0 18c2 e7c0 0af9 59c0
00000390: b013 80c0 883d f0c0 acd9 4fc1 284d cabf
000003a0: 2d99 82c0 49eb b4c0 3958 d9c0 acfa d2c0
000003b0: cdf3 a3c0 261e 1fbf d2d4 06c1 ae06 02c0
000003c0: 7fdb e2c0 8f97 a1bf ecae a8c0 055f 08c1
000003d0: b65b 1ec1 bbd7 dec0 069b fcbf 56bd cac0
000003e0: d6f0 e6c0 0880 2dbf 8c60 08c1 d08c 6ec0
000003f0: f58f c9bf df0b 9ac0 ca42 9ac0 9dfb 9abf

model_1/dense_2/MatMul f4 [92, 77]
-0.14687318 2.8145764 4.4186735 0.96993226 -1.4853287 -2.5827286 -1.8597096 -4.851623
0.5000446 -4.334605 0.3060746 -14.8587475 0.93820244 0.8322259 -0.02482376 0.31780338
1.6416 2.1948946 2.4369166 -0.018747253 4.0124645 2.6518514 3.5619004 4.015443
-0.39103147 -1.1765224 1.2980343 -0.25268665 -0.87673855 0.025113078 -4.907137 0.013610426
-0.76441056 0.0009862408 6.8281317 3.0393338 -0.22554843 -0.33810213 -9.1392565 1.3468685
2.279488 2.3907807 -0.0027278261 1.0436639 -4.894781 -0.18918566 2.1534169 -0.7176199
-1.5173471 -0.7501486 -0.14947356 0.21342038 2.5519445 0.522258 0.9090976 0.029468153
-0.04744625 -0.0021389127 0.025505494 -0.033578932 0.022285704 4.361082 -1.4471419 0.9673529
-2.632899 -1.9382033 -0.10648484 4.2142005 2.5563893 -0.0076637864 -0.025175357 -0.0299986
0.02601545 0.012904454 0.036636878 0.040192176 0.02324522 3.6394377 -0.7201764 -1.9113066
-1.5926014 -0.7026951 0.041413713 1.2639598 -2.9078026 0.7643724 0.054774918 1.9492315
-3.403289 1.8356907 -0.015370109 -0.4282087 -0.25983956 0.40556595 -0.2705215 -0.93557566
1.1083851 -1.3693652 -0.17911103 -0.13083142 -1.0389293 -0.62104875 0.47173968 -0.3820529
-0.29852176 -0.3966559 0.16793534 -2.0953276 0.02718984 0.16630104 0.04719409 -0.8323783
-1.4379464 0.2172505 -0.7018677 -3.0510852 2.6273444 2.002347 3.1626658 1.2087512
-3.2019055 -2.1689622 -0.13407348 4.4834614 1.2492461 -1.7934614 0.16705409 -0.13858832
-2.9898915 1.9751307 0.7598546 1.7952995 -0.024101317 0.031083178 -0.031790793 -0.009001054
-0.021879792 0.047198247 -1.87432 -0.69373804 -1.5875715 0.056122158 0.91063344 -5.5844474
-1.1078984 0.6808798 -0.025422012 -0.008255638 -0.047176015 0.026784968 -0.021325542 0.0006622784
-0.033125 -0.017442487 7.744525 1.6209673 -1.1923736 0.5966912 2.5696497 2.0957115
1.949314 -0.94924325 2.6578999 -0.40117073 0.8363185 10.771361 1.7690645 -3.434929
3.0120554 0.366857 1.1602217 1.4444191 1.7901528 1.2812421 0.7632974 0.24395336
0.25040346 0.67350364 0.1680869 1.4304814 -0.19277133 4.02849 0.6225177 0.2967826
-1.0881526 -0.013397239 0.15202455 0.008096099 -0.6817949 -1.4941648 0.9077398 0.26505658
6.0517325 0.50880986 2.070485 0.28320554 0.576292 -10.053073 -1.0944203 0.22277005
-1.9404956 2.9593642 2.1893532 0.16227838 0.14350134 1.9407833 2.0470965 2.7439656
1.781129 -0.0058679692 0.032985356 -0.027822757 -0.038566865 0.03406428 -0.021237195 -1.105276
2.4826593 0.5973621 2.1174948 1.1632595 -0.77747566 -0.072746225 -0.77075505 0.0054258606
0.057557166 0.012050084 0.00361828 -0.012919372 -0.001798305 0.03687316 0.008357933 6.948431
0.18470432 -2.277331 0.80283827 1.28291 0.8272064 -0.010167752 -0.0737959 -1.066573
3.1786923 -0.660331 8.196315 -1.251414 2.7512019 0.74696064 -0.22295964 -0.83247
-0.5520855 -0.49013084 0.38052365 0.58216065 0.84560406 0.12242547 -0.20902213 0.42841512
00000000: ec65 16be 0522 3440 c665 8d40 7b4d 783f
00000010: 401f bebf 6d4b 25c0 f70a eebf 7f40 9bc0
00000020: ec02 003f 16b5 8ac0 cfb5 9c3e 6ebd 6dc1
00000030: 092e 703f c20c 553f 335b cbbc 20b7 a23e
00000040: f31f d23f 2779 0c40 71f6 1b40 d793 99bc
00000050: 1c66 8040 efb7 2940 2df6 6340 827e 8040
00000060: 4735 c8be 4998 96bf fd25 a63f 2560 81be
00000070: f071 60bf f1b9 cd3c 4407 9dc0 44fe 5e3c
00000080: 69b0 43bf c044 813a 0e80 da40 7284 4240
00000090: 2bf6 66be b91b adbe 653a 12c1 3066 ac3f
000000a0: 22e3 1140 8d02 1940 54c5 32bb c796 853f
000000b0: 0ca2 9cc0 e3b9 41be 95d1 0940 f0b5 37bf
000000c0: 6e38 c2bf bd09 40bf 990f 19be df8a 5a3e
000000d0: 0f53 2340 b3b2 053f 9fba 683f 3267 f13c
000000e0: 0057 42bd 002d 0cbb e6f0 d03c 108a 09bd
000000f0: 8290 b63c fc8d 8b40 f23b b9bf 71a4 773f
00000100: 6b81 28c0 0c17 f8bf b914 dabd bbda 8640
00000110: e29b 2340 8020 fbbb 8d3c cebc a0bf f5bc
00000120: 5a1e d53c 346d 533c 8d10 163d 8da0 243d
00000130: c26c be3c 8cec 6840 7b5d 38bf b2a5 f4bf
00000140: 5dda cbbf d3e3 33bf 6da1 293d 6fc9 a13f
00000150: 7019 3ac0 e9ad 433f aa5b 603d 6b80 f93f
00000160: 7dcf 59c0 eaf7 ea3f e9d2 7bbc 2c3e dbbe
00000170: b109 85be 57a6 cf3e cb81 8abe e381 6fbf
00000180: 90df 8d3f 5c47 afbf e268 37be acf8 05be
00000190: a3fb 84bf 0dfd 1ebf dd87 f13e 709c c3be
000001a0: d8d7 98be 7b16 cbbe 3ef7 2b3e d919 06c0
000001b0: 3abd de3c d24a 2a3e 974e 413d bf16 55bf
000001c0: a10e b8bf ea76 5e3e 9aad 33bf fb44 43c0
000001d0: 6926 2840 7426 0040 1e69 4a40 5cb8 9a3f
000001e0: 05ec 4cc0 47d0 0ac0 8f4a 09be 8478 8f40
000001f0: 4ce7 9f3f 2590 e5bf 3a10 2b3e 19ea 0dbe
00000200: 625a 3fc0 15d1 fc3f d585 423f 60cc e53f
00000210: 2070 c5bc 26a2 fe3c 1037 02bd 2879 13bc
00000220: 403d b3bc f352 413d b8e9 efbf d198 31bf
00000230: 8b35 cbbf 59e0 653d 461f 693f cbb3 b2c0
00000240: 9dcf 8dbf 234e 2e3f d341 d0bc a842 07bc
00000250: a33b 41bd 266c db3c e7b2 aebc c09c 2d3a
00000260: 14ae 07bd 8ce3 8ebc 26d3 f740 db7b cf3f
00000270: b39f 98bf c1c0 183f 2475 2440 2320 0640
00000280: 1f83 f93f 9b01 73bf 081b 2a40 4066 cdbe
00000290: f818 563f 7f57 2c41 b570 e23f e0d5 5bc0
000002a0: 84c5 4040 aed4 bb3e 2582 943f bae2 b83f
000002b0: ba23 e53f beff a33f 7567 433f e9ce 793e
000002c0: e234 803e bc6a 2c3f f91e 2c3e 041a b73f
000002d0: d965 45be 64e9 8040 525d 1f3f e4f3 973e
000002e0: 9648 8bbf 1880 5bbc 53ac 1b3e 80a5 043c
000002f0: 1c8a 2ebf cb40 bfbf a361 683f 7fb5 873e
00000300: cba7 c140 5d41 023f d482 0440 5100 913e
00000310: df87 133f 63d9 20c1 f715 8cbf d51d 643e
00000320: 2962 f8bf 3966 3d40 5d1e 0c40 4e2c 263e
00000330: 04f2 123e 966b f83f a103 0340 229d 2f40
00000340: 09fc e33f 1848 c0bb a71b 073d 8dec e3bc
00000350: 4af8 1dbd fd86 0b3d a0f9 adbc af79 8dbf
00000360: e4e3 1e40 b9ec 183f 0985 0740 b0e5 943f
00000370: a508 47bf f9fb 94bd 3450 45bf 6bcb b13b
00000380: 10c1 6b3d b76d 453c aa20 6d3b c6ab 53bc
00000390: 1ab5 ebba 5008 173d b6ef 083c 8c59 de40
000003a0: 2123 3d3e cbbf 11c0 cf86 4d3f 6536 a43f
000003b0: ccc3 533f a596 26bc 4e22 97bd 7785 88bf
000003c0: b26f 4b40 740b 29bf 1b24 0341 552e a0bf
000003d0: b113 3040 d038 3f3f 884f 64be c11c 55bf
000003e0: 7a55 0dbf 6ef2 fabe ffd3 c23e 7b08 153f
000003f0: 8279 583f 34ba fa3d e609 56be 3a59 db3e

model_1/dense_3/MatMul f4 [67, 77]
-15.116521 -6.774739 1.1730072 0.66873467 -1.4328948 -0.68636227 -2.128945 6.8873715
-1.8266252 0.27914137 -0.8428082 -2.0770998 -1.1859924 6.1967335 -1.128446 -0.63833296
-6.789367 -7.302565 -6.970742 -0.35830644 -9.515007 -9.618494 -11.515558 -10.288452
-0.034019306 -0.9851634 -0.39689413 -3.1394968 -0.6675795 -0.019407384 -2.5926352 0.07958877
0.07904009 -0.14319673 3.40331 3.031369 -0.08117201 -0.24288864 -7.701742 -1.7756888
-2.2257977 -1.9353906 -1.4890767 10.851675 -2.706502 0.10110624 -1.564937 -3.0417888
-4.1431093 0.11294404 0.05481233 1.9272015 -2.090081 -2.0853174 -1.2023519 -0.015832633
-0.013764381 0.18040922 0.084472895 -0.17156199 0.20192966 1.1208484 -1.6436416 0.4773839
-0.6895397 -5.0453334 0.13242327 -2.1135905 -0.47054866 0.034446515 -0.046063516 0.012741725
-0.100360215 -0.22575994 -0.094199374 -0.3630141 -0.15848108 1.3525342 -3.3680148 -3.1405683
-0.717131 -0.07044706 0.51809025 0.46507162 1.3695494 0.21496102 0.8861451 -0.30108437
0.842286 0.14213467 -4.079977 0.11611687 -0.39105725 -3.1556864 -2.9749317 -3.7543902
-0.08521894 -3.337156 -3.3603828 -2.675899 -3.4936557 -0.12744239 -2.647223 -2.2790835
-3.5889516 -3.2091057 -0.47092745 3.3708994 0.10995144 0.31762964 0.027234674 -5.1085076
-2.231806 0.23440097 -5.3591833 2.5134208 -1.9036975 -1.8492284 -1.4478911 -2.4804144
-1.0147468 3.3986785 0.00915741 -3.908235 2.2072845 0.49573913 0.25339 0.24055882
0.32443306 -1.648252 0.1153432 0.03406429 0.13935184 0.015482143 -0.00013159215 -0.19154568
0.03451006 -0.02995643 -3.2257385 -0.22156091 -1.0401971 0.6781585 0.7458461 0.15423615
-1.9453747 -2.660121 0.13304603 0.015850162 -0.08485361 -0.25435448 -0.13360155 0.03132171
-0.009003629 -0.033861406 -22.266563 -2.8791356 -0.9134023 2.027694 -0.19178857 -0.47575915
-0.013369383 3.1769304 -1.6954455 0.6899947 0.8141618 -7.657714 -2.1212366 2.7013264
-2.2335954 -1.0117683 -4.1785345 -4.1893387 -3.8251991 -1.0210327 -2.256553 -3.593416
-3.0616517 -2.8352287 -0.059947304 -0.15887174 -0.8993104 1.3688459 -0.7827004 -0.028372254
0.45903337 -0.047428906 0.12275715 0.039755717 0.46557936 4.351649 -1.0847048 -0.02975881
-7.5474343 -0.20365879 -3.0601707 -0.9398666 0.18478952 15.866647 0.602583 0.039042983
-3.403832 -2.5686662 -4.3316274 -0.11523714 0.091320425 -0.2771219 -2.883727 -1.9005439
-2.4172838 -0.036620006 -0.067064956 -0.1967586 0.11829671 -0.17346522 -0.064137354 -0.9863661
-0.26427105 2.0031347 -0.819418 -1.1006292 -1.3392397 -1.6031381 1.8109365 -0.17917672
0.07882029 -0.07006256 0.10802996 0.18174496 -0.096240774 -0.15176597 -0.184402 -10.244377
-5.1225886 0.9361103 -0.19935288 -0.9084712 0.042729057 -1.8895721 1.2248987 -1.966938
5.1500754 0.07110705 -1.7712713 -0.0028860725 -1.4850636 0.07595898 0.09133812 -5.61342
-6.0798583 -5.283691 -0.23048085 -6.523788 -6.599284 -8.556428 -6.8337193 -0.15038879
00000000: 45dd 71c1 a9ca d8c0 1a25 963f 3232 2b3f
00000010: 1969 b7bf 70b5 2fbf a340 08c0 5965 dc40
00000020: dbce e9bf 9eeb 8e3e 47c2 57bf 34ef 04c0
00000030: 99ce 97bf a44b c640 eb70 90bf ca69 23bf
00000040: 7f42 d9c0 9dae e9c0 5210 dfc0 f173 b7be
00000050: 783d 18c1 5ae5 19c1 ba3f 38c1 809d 24c1
00000060: d457 0bbd ab33 7cbf b535 cbbe 84ed 48c0
00000070: 7de6 2abf 3cfc 9ebc bced 25c0 70ff a23d
00000080: c5df a13d 2aa2 12be d5cf 5940 f301 4240
00000090: 833d a6bd cdb7 78be ac74 f6c0 c549 e3bf
000000a0: 7873 0ec0 e1ba f7bf 119a bebf 76a0 2d41
000000b0: 5437 2dc0 ca10 cf3d db4f c8bf abac 42c0
000000c0: 5a94 84c0 344f e73d e582 603d 8aae f63f
000000d0: e3c3 05c0 d775 05c0 abe6 99bf 70b3 81bc
000000e0: 0084 61bc 32bd 383e 2000 ad3d f2ad 2fbe
000000f0: a6c6 4e3e f677 8f3f d962 d2bf aa6b f43e
00000100: ac85 30bf 5f73 a1c0 f799 073e 1145 07c0
00000110: c1eb f0be ca17 0d3d 19ad 3cbd abc2 503c
00000120: a889 cdbd 9d2d 67be 9aeb c0bd fcdc b9be
00000130: dd48 22be d71f ad3f 8e8d 57c0 12ff 48c0
00000140: e695 37bf 8c46 90bd 90a1 043f de1d ee3e
00000150: 654d af3f be1e 5c3e 68da 623f bb27 9abe
00000160: 0ea0 573f c08b 113e 2c8f 82c0 aece ed3d
00000170: a838 c8be c4f6 49c0 4865 3ec0 ee47 70c0
00000180: 4587 aebd f793 55c0 8310 57c0 ee41 2bc0
00000190: 0e98 5fc0 4280 02be 1a6c 29c0 81dc 11c0
000001a0: 62b1 65c0 fd61 4dc0 671d f1be d1bc 5740
000001b0: 382e e13d 5aa0 a23e 401b df3c e578 a3c0
000001c0: e9d5 0ec0 cf06 703e 6e7e abc0 e3db 2040
000001d0: 5cac f3bf 84b3 ecbf 7f54 b9bf 1cbf 1ec0
000001e0: 39e3 81bf f383 5940 f608 163c 8620 7ac0
000001f0: 2644 0d40 85d1 fd3e 56bc 813e 0d55 763e
00000200: 171c a63e ecf9 d2bf 0e39 ec3d ff86 0b3d
00000210: 40b2 0e3e d0a8 7d3c 00fc 09b9 8d24 44be
00000220: 6c5a 0d3d 3067 f5bc 8072 4ec0 dde0 62be
00000230: 2e25 85bf cc9b 2d3f c5ef 3e3f 15f0 1d3e
00000240: 0a02 f9bf 6c3f 2ac0 383d 083e 33d8 813c
00000250: bbc7 adbd c03a 82be d8ce 08be 324b 003d
00000260: f583 13bc 42b2 0abd ec21 b2c1 c243 38c0
00000270: bcd4 69bf bdc5 0140 3964 44be b496 f3be
00000280: 420b 5bbc d452 4b40 5c04 d9bf 7ea3 303f
00000290: e86c 503f fe0b f5c0 57c2 07c0 88e2 2c40
000002a0: 3af3 0ec0 a081 81bf 8eb6 85c0 100f 86c0
000002b0: 10d0 74c0 33b1 82bf 5d6b 10c0 87fa 65c0
000002c0: 1af2 43c0 6374 35c0 4e8b 75bd 46af 22be
000002d0: 3539 66bf 5836 af3f 0e5f 48bf ee6c e8bc
000002e0: 6c06 eb3e d044 42bd 1a68 fb3d e4d6 223d
000002f0: 6b60 ee3e b540 8b40 9bd7 8abf bfc8 f3bc
00000300: 9584 f1c0 ee8b 50be d6d9 43c0 199b 70bf
00000310: 7739 3d3e c9dd 7d41 e142 1a3f 89eb 1f3d
00000320: 62d8 59c0 0765 24c0 b19c 8ac0 7301 ecbd
00000330: 3406 bb3d ece2 8dbe fc8e 38c0 0645 f3bf
00000340: c7b4 1ac0 dcfe 15bd 5a59 89bd 167b 49be
00000350: 8c45 f23d dea0 31be 725a 83bd 7d82 7cbf
00000360: 894e 87be 5c33 0040 61c5 51bf 6be1 8cbf
00000370: 356c abbf a133 cdbf c4cc e73f 1a7a 37be
00000380: 886c a13d f67c 8fbd d03e dd3d 5a1b 3a3e
00000390: e219 c5bd 8a68 1bbe e1d3 3cbe f8e8 23c1
000003a0: 3fec a3c0 eda4 6f3f 2923 4cbe 9291 68bf
000003b0: aa04 2f3d 80dd f1bf 7bc9 9c3f a0c4 fbbf
000003c0: 6bcd a440 93a0 913d 05b9 e2bf 4324 3dbb
000003d0: 9016 bebf 6290 9b3d 7b0f bb3d 23a1 b3c0
000003e0: 338e c2c0 ff13 a9c0 2c03 6cbe dfc2 d0c0
000003f0: 562d d3c0 21e7 08c1 d4ad dac0 85ff 19be
